…
, (3,3), activation='relu'),\n    layers.MaxPooling2D((2,2)),\n\n    # Output\n    layers.Flatten(),\n    layers.Dense(64, activation='relu'),\n    layers.Dropout(0.3),\n    layers.Dense(5)\n])\n\n\n\nConv2D -\nMaxPooling2D -\nFlatten() -\nDense(64, activation='relu') -\nDense(5) -\n\nNow, lets check the summary of our model.\nmodel1.summary()\nModel: \"sequential\"\n_________________________________________________________________\n Layer (type)                Output Shape              Param #   \n=================================================================\n conv2d (Conv2D)             (None, 158, 158, 16)      448       \n                                                                 \n max_pooling2d (MaxPooling2  (None, 79, 79, 16)        0         \n D)                                                              \n                                                                 \n conv2d_1 (Conv2D)           (None, 77, 77, 16)        2320      \n                                                                 \n max_pooling2d_1 (MaxPoolin  (None, 38, 38, 16)        0         \n g2D)                                                            \n                                                                 \n conv2d_2 (Conv2D)           (None, 36, 36, 32)        4640      \n                                                                 \n max_pooling2d_2 (MaxPoolin  (None, 18, 18, 32)        0         \n g2D)                                                            \n                                                                 \n flatten (Flatten)           (None, 10368)             0         \n                                                                 \n dense (Dense)               (None, 64)                663616    \n                                                                 \n dropout (Dropout)           (None, 64)                0         \n                                                                 \n dense_1 (Dense)             (None, 5)                 325       \n                                                                 \n=================================================================\nTotal params: 671349 (2.56 MB)\nTrainable params: 671349 (2.56 MB)\nNon-trainable params: 0 (0.00 Byte)\n_________________________________________________________________"
  },
  {
    "objectID": "posts/HW4/index.html#access-the-data",
    "href": "posts/HW4/index.html#access-the-data",
…
